…
ing data from https://storage.googleapis.com/tensorflow/keras-applications/vgg16/vgg16_weights_tf_dim_ordering_tf_kernels.h5\n","553467096/553467096 [==============================] - 7s 0us/step\n","Model: \"vgg16\"\n","_________________________________________________________________\n"," Layer (type)                Output Shape              Param #   \n","=================================================================\n"," input_1 (InputLayer)        [(None, 224, 224, 3)]     0         \n","                                                                 \n"," block1_conv1 (Conv2D)       (None, 224, 224, 64)      1792      \n","                                                                 \n"," block1_conv2 (Conv2D)       (None, 224, 224, 64)      36928     \n","                                                                 \n"," block1_pool (MaxPooling2D)  (None, 112, 112, 64)      0         \n","                                                                 \n"," block2_conv1 (Conv2D)       (None, 112, 112, 128)     73856     \n","                                                                 \n"," block2_conv2 (Conv2D)       (None, 112, 112, 128)     147584    \n","                                                                 \n"," block2_pool (MaxPooling2D)  (None, 56, 56, 128)       0         \n","                                                                 \n"," block3_conv1 (Conv2D)       (None, 56, 56, 256)       295168    \n","                                                                 \n"," block3_conv2 (Conv2D)       (None, 56, 56, 256)       590080    \n","                                                                 \n"," block3_conv3 (Conv2D)       (None, 56, 56, 256)       590080    \n","                                                                 \n"," block3_pool (MaxPooling2D)  (None, 28, 28, 256)       0         \n","                                                                 \n"," block4_conv1 (Conv2D)       (None, 28, 28, 512)       1180160   \n","                                                                 \n"," block4_conv2 (Conv2D)       (None, 28, 28, 512)       2359808   \n","                                                                 \n"," block4_conv3 (Conv2D)       (None, 28, 28, 512)       2359808   \n","                                                                 \n"," block4_pool (MaxPooling2D)  (None, 14, 14, 512)       0         \n","                                                                 \n"," block5_conv1 (Conv2D)       (None, 14, 14, 512)       2359808   \n","                                                                 \n"," block5_conv2 (Conv2D)       (None, 14, 14, 512)       2359808   \n","                                                                 \n"," block5_conv3 (Conv2D)       (None, 14, 14, 512)       2359808   \n","                                                                 \n"," block5_pool (MaxPooling2D)  (None, 7, 7, 512)         0         \n","                                                                 \n"," flatten (Flatten)           (None, 25088)             0         \n","                                                                 \n"," fc1 (Dense)                 (None, 4096)              102764544 \n","                                                                 \n"," fc2 (Dense)                 (None, 4096)              16781312  \n","                                                                 \n"," predictions (Dense)         (None, 1000)              4097000   \n","                                                                 \n","=================================================================\n","Total params: 138357544 (527.79 MB)\n","Trainable params: 138357544 (527.79 MB)\n","Non-trainable params: 0 (0.00 Byte)\n","_________________________________________________________________\n"]}]},{"cell_type":"markdown","source":["The feature extracti
…
user":{"displayName":"GPU Project","userId":"15085089152588404930"}},"outputId":"1b05d8ce-8f36-486d-fa24-5911a2d00f94"},"execution_count":4,"outputs":[{"output_type":"stream","name":"stdout","text":["Model: \"model\"\n","_________________________________________________________________\n"," Layer (type)                Output Shape              Param #   \n","=================================================================\n"," input_1 (InputLayer)        [(None, 224, 224, 3)]     0         \n","                                                                 \n"," block1_conv1 (Conv2D)       (None, 224, 224, 64)      1792      \n","                                                                 \n"," block1_conv2 (Conv2D)       (None, 224, 224, 64)      36928     \n","                                                                 \n"," block1_pool (MaxPooling2D)  (None, 112, 112, 64)      0         \n","                                                                 \n"," block2_conv1 (Conv2D)       (None, 112, 112, 128)     73856     \n","                                                                 \n"," block2_conv2 (Conv2D)       (None, 112, 112, 128)     147584    \n","                                                                 \n"," block2_pool (MaxPooling2D)  (None, 56, 56, 128)       0         \n","                                                                 \n"," block3_conv1 (Conv2D)       (None, 56, 56, 256)       295168    \n","                                                                 \n"," block3_conv2 (Conv2D)       (None, 56, 56, 256)       590080    \n","                                                                 \n"," block3_conv3 (Conv2D)       (None, 56, 56, 256)       590080    \n","                                                                 \n"," block3_pool (MaxPooling2D)  (None, 28, 28, 256)       0         \n","                                                                 \n"," block4_conv1 (Conv2D)       (None, 28, 28, 512)       1180160   \n","                                                                 \n"," block4_conv2 (Conv2D)       (None, 28, 28, 512)       2359808   \n","                                                                 \n"," block4_conv3 (Conv2D)       (None, 28, 28, 512)       2359808   \n","                                                                 \n"," block4_pool (MaxPooling2D)  (None, 14, 14, 512)       0         \n","                                                                 \n"," block5_conv1 (Conv2D)       (None, 14, 14, 512)       2359808   \n","                                                                 \n"," block5_conv2 (Conv2D)       (None, 14, 14, 512)       2359808   \n","                                                                 \n"," block5_conv3 (Conv2D)       (None, 14, 14, 512)       2359808   \n","                                                                 \n"," block5_pool (MaxPooling2D)  (None, 7, 7, 512)         0         \n","                                                                 \n"," flatten (Flatten)           (None, 25088)             0         \n","                                                                 \n"," fc1 (Dense)                 (None, 4096)              102764544 \n","                                                                 \n"," fc2 (Dense)                 (None, 4096)              16781312  \n","                                                                 \n","=================================================================\n","Total params: 134260544 (512.16 MB)\n","Trainable params: 134260544 (512.16 MB)\n","Non-trainable params: 0 (0.00 Byte)\n","_________________________________________________________________\n"]}]},{"cell_type":"markdown","source":["After the image model
…
           Param #   Connected to                  \n","==================================================================================================\n"," input_5 (InputLayer)        [(None, 33)]                 0         []                            \n","                                                                                                  \n"," input_4 (InputLayer)        [(None, 4096)]               0         []                            \n","                                                                                                  \n"," embedding_1 (Embedding)     (None, 33, 50)               375300    ['input_5[0][0]']             \n","                                                                                                  \n"," dropout_2 (Dropout)         (None, 4096)                 0         ['input_4[0][0]']             \n","                                                                                                  \n"," dropout_3 (Dropout)         (None, 33, 50)               0         ['embedding_1[0][0]']         \n","                                                                                                  \n"," dense_3 (Dense)             (None, 256)                  1048832   ['dropout_2[0][0]']           \n","                                                                                                  \n"," lstm_1 (LSTM)               (None, 256)                  314368    ['dropout_3[0][0]']           \n","                                                                                                  \n"," concatenate_1 (Concatenate  (None, 512)                  0         ['dense_3[0][0]',             \n"," )                                                                   'lstm_1[0][0]']              \n","                                                                                                  \n"," dense_4 (Dense)             (None, 256)                  131328    ['concatenate_1[0][0]']       \n","                                                                                                  \n"," dense_5 (Dense)             (None, 7506)                 1929042   ['dense_4[0][0]']             \n","                                                                                                  \n","==================================================================================================\n","Total params: 3798870 (14.49 MB)\n","Trainable params: 3423570 (13.06 MB)\n","Non-trainable params: 375300 (1.43 MB)\n","___________________________________
…
